assignment1/best_model.npy (npy, 62928 bytes, 1 tensors)

array f8 [785, 10]
-5.880889014176058e-07 4.515456240157388e-06 -5.486054685551068e-07 -9.820813076964205e-07 -1.2254847041918987e-06 -4.7426602015800546e-07 -2.157241456759648e-07 -1.6420689773535563e-07
-1.6299411143225136e-07 -1.5400468329477874e-07 2.7991332907888035e-06 5.3307074052945076e-06 9.825593999432737e-06 -4.002837541069155e-06 -6.585528362708854e-06 -3.58340907592999e-06
-8.465682308349482e-07 -9.916984260585456e-07 -1.0032207496922889e-06 -9.421723092222655e-07 4.544348475245081e-05 -8.412201936225176e-06 5.111079501345801e-05 -2.1446335477660355e-05
-3.1185037571825703e-05 -1.4922313084200669e-05 -3.377575289202602e-06 -5.678982375636611e-06 -5.71028908040059e-06 -5.821544950757106e-06 0.00017338069364521174 -2.5196332122737726e-05
5.955427570186023e-06 -5.180175677687467e-06 -6.240326423843931e-05 -2.7058939703260766e-05 -1.5696304209648046e-05 -1.475037368863603e-05 -1.442770941298569e-05 -1.4623022162002723e-05
7.469483537542865e-05 0.00018923145234132807 -3.162693697101808e-05 1.0857459245834418e-05 -7.68353715704691e-05 -7.566389964806883e-05 -2.844304554018746e-06 -2.119556409229629e-05
-3.299319650004185e-05 -3.362447362667825e-05 -3.704819429526515e-05 0.00040573153751648146 -5.842943705496127e-05 2.121294563638083e-06 -0.0002067731335422601 -8.873408879490357e-05
8.916221701815656e-05 -7.948162616778835e-06 -4.751905882593398e-05 -5.056297396817315e-05 -1.2151493654954235e-05 0.001220275169651363 -0.0001170091261631978 -0.0001489923511461335
-0.0005471299434273134 -0.0002492156547095136 9.53132698493751e-05 -5.778463530014355e-05 -6.140804380650745e-05 -0.00012189719129297474 0.001439103819533314 0.002454961109114859
-0.00043583068444124636 -0.00042293250681623915 -0.0014826717243157012 -0.0005010361389643353 -0.00012502825179470104 -0.00025948260476850275 -0.0003086051987731849 -0.00035847781877426194
0.004411124878811102 0.00431461679310153 -0.0007037302542778388 -0.0010670444401348032 -0.0032788363087037538 -0.0010555374092434653 -0.00025661363283908375 -0.0007713120233320726
-0.0008368511490499469 -0.0007558164543316675 0.007437868147842423 0.011194257914055022 -0.0002441468302611592 -0.0008149365837661373 -0.006968253207511382 -0.0028591941425407203
-0.0014284914672072113 -0.0020268014515404786 -0.0022138165549546915 -0.002076485824115664 0.008220407113163474 0.03486698131428724 0.00011695399825334228 -0.0018341703982007124
-0.013296470941132883 -0.006414145353883471 -0.005283131853097425 -0.00521101121174928 -0.0055800521170264105 -0.005585360550613886 0.008245340212747776 0.03855764116335599
0.0002920124218765611 -0.002589928449898011 -0.008851210627711346 -0.007746244065460784 -0.006682601356040596 -0.006754038832657177 -0.0071789765246586795 -0.007291993941553735
-0.002266097624123507 0.03304274259902995 -0.001612664041540203 -0.0036405537028024073 0.005664236329980593 -0.007388368667454549 -0.003733544554373093 -0.0066397446460253725
-0.006513972760179722 -0.006912032932511698 -0.009887708077869178 0.03416195382508215 -0.001648135060766884 -0.005530202252238145 0.01069103394511535 -0.006857663934281554
-0.003399632809669224 -0.006004392830751964 -0.005352771488864061 -0.006172481315756499 -0.009341253574556988 0.03178182219929824 -0.0009555660352672513 -0.006470157017424813
0.010926521800434172 -0.006409936649214514 -0.003367246734172794 -0.005749835663119021 -0.0045698453897669335 -0.005844502936210077 -0.006551768474612046 0.03074809070275884
-0.0012623371195750977 -0.0045674765894256775 0.009459018928287408 -0.006687763559018557 -0.0031393317801132283 -0.0062868479621410065 -0.005332674110475176 -0.006378910035685438
0.00645085399616664 0.030394321739639612 -0.00015459103443442746 -0.0017704665178581835 -0.0014728013494909836 -0.007416752616302577 -0.0053755419040088645 -0.0067832297404095444
-0.006800633687209508 -0.00707115888609215 0.01155797758266016 0.03409989170644904 0.001259940521146626 -0.001493149002179618 -0.013882455586947947 -0.006413722434944308
-0.006217479926979211 -0.00614006553711488 -0.0064925648819821975 -0.00627837244010766 0.006241884467221344 0.032778850912866205 -0.0019837258467595878 -0.004171594420527272
-0.012217850746666783 -0.004559233979792984 -0.0034592246400587112 -0.00408889950166115 -0.004416546496252267 -0.004123659748368794 0.0052700865021908525 0.011032664471303619
-0.0014906561800063656 -0.0025749480448203077 -0.005246248773970112 -0.0015219031922704771 -0.0008800753636948067 -0.0015336235884092944 -0.0016527799723440022 -0.0014025158579791034
0.0035867378295258187 0.0029442218920645116 -0.0008437128331915302 -0.0012255718756780116 -0.002263467932916538 -0.0004301112181518636 -0.00027195445494344157 -0.0005343476522132096
-0.0005346248576047278 -0.0004271688968910076 0.0009505577010794715 0.0014890012587537344 -0.00044776440663993756 -0.00038168763214649755 -0.001084000057828479 1.4479945740738071e-05
-6.766182867102037e-05 -0.00020715815093149236 -0.0001986546456907411 -6.711218366577579e-05 2.7842289584131043e-05 0.00042121144536792565 -0.0001672026298792814 -0.0001582569195580133
-0.00038548532380612837 0.0002907030403396206 1.510807023514998e-05 -6.619897554615396e-05 -5.9732277336745315e-05 8.201128059949527e-05 -5.910597220661747e-05 0.0001200308572004757
-0.00011068249750720557 -0.00010260343376043776 -0.0001009208722321349 6.795316185463856e-05 3.569644214855966e-05 3.140757414486819e-05 -2.470607062371384e-05 0.00014293081098156743
0.00012765449650109658 -8.869599375378776e-05 -6.161371154171598e-05 1.740171253228829e-05 -8.99853047447301e-05 9.96583366791902e-06 -1.6170326473027316e-05 5.0714339770845386e-05
-3.769535966120868e-06 5.449849000723274e-05 0.00011329270555851294 -2.806379506813921e-05 -2.053537423578601e-05 -1.3298320372113221e-05 -3.2302995308258124e-05 -1.5372402369694202e-05
00000000: 291f a92b a5bb a3be 8752 0229 6ff0 d23e
00000010: 2343 f82e 7c68 a2be df39 36d1 017a b0be
00000020: 9c59 92ae 6a8f b4be 021e ea03 d4d3 9fbe
00000030: 4761 0aa7 39f4 8cbe 37ef b925 1b0a 86be
00000040: 7f43 c15d 6fe0 85be cf5b 2685 8fab 84be
00000050: bdda eacc 177b c73e 056c b0b1 cd5b d63e
00000060: ff13 455b 139b e43e e388 e99a 03ca d0be
00000070: 6e55 a140 289f dbbe 4898 18f9 4f0f cebe
00000080: b9d2 1d3a f767 acbe 91fa 60f3 4fa3 b0be
00000090: afc0 27e1 ccd4 b0be 236e 97d1 329d afbe
000000a0: f3c6 223f 52d3 073f b9b2 023b 44a4 e1be
000000b0: 129c 608b f9cb 0a3f 61a7 b1f3 f47c f6be
000000c0: 2c01 62bb 9559 00bf 2606 fb17 5b4b efbe
000000d0: f6f2 eea6 4955 ccbe e90a fbc9 c2d1 d7be
000000e0: fdad 7a4f 60f3 d7be 1acd 5b17 d66a d8be
000000f0: 0aba 63d1 b0b9 263f 9c10 57c2 966b fabe
00000100: e0af 2777 97fa d83e e9fc 0ed9 2bba d5be
00000110: 06bc 90ea cf5b 10bf 5aa5 6c2d 945f fcbe
00000120: 36aa ddcf 7175 f0be 006f 4fec 0bef eebe
00000130: a943 6048 d141 eebe e5a6 cfdc acaa eebe
00000140: fcd1 1e80 af94 133f da65 61cc 8dcd 283f
00000150: 0ac6 9a47 e594 00bf e175 0bd6 0dc5 e63e
00000160: d968 dda1 5524 14bf 401c dde5 b7d5 13bf
00000170: 32db 0cf7 18dc c7be 19f9 d312 a439 f6be
00000180: ceac 8399 454c 01bf 91d1 d71d 00a1 01bf
00000190: f373 5343 866c 03bf f33a 41af 0b97 3a3f
000001a0: 8118 922b 44a2 0ebf 8cbf f204 72cb c13e
000001b0: e064 48b1 271a 2bbf 72f2 a309 d842 17bf
000001c0: d29f 7a39 935f 173f 1969 ee26 23ab e0be
000001d0: 8abc c26d e6e9 08bf 83e7 808e 7282 0abf
000001e0: c8e4 3092 c87b e9be 648d 877c 34fe 533f
000001f0: 99e1 167b 59ac 1ebf fdd8 118d 5a87 23bf
00000200: eaf3 599b a8ed 41bf 8e4a 2d16 2555 30bf
00000210: fe46 ec81 5dfc 183f b6bb 5af3 b84b 0ebf
00000220: 6f22 d128 0619 10bf 4523 e1cc 61f4 1fbf
00000230: c3d6 c9f5 0994 573f 7ab5 a635 6d1c 643f
00000240: 9be3 4889 0690 3cbf c047 0249 a1b7 3bbf
00000250: dad3 43a4 c64a 58bf 7617 5dea fe6a 40bf
00000260: ce2c 4c81 4063 20bf e008 264d 6501 31bf
00000270: 3778 713c 8939 34bf abc5 0a82 427e 37bf
00000280: 6732 7d51 6611 723f 899a 5620 34ac 713f
00000290: 27b8 b236 510f 47bf 700b 523e 827b 51bf
000002a0: 28ce dfd6 37dc 6abf f501 c1a9 3e4b 51bf
000002b0: 9704 2729 43d1 30bf a505 26f5 3b46 49bf
000002c0: 4c8f 8c28 046c 4bbf b344 007a 3fc4 48bf
000002d0: 04ae 2687 2b77 7e3f b69d 26dd 03ed 863f
000002e0: 82bd c1a6 1a00 30bf 161e e0fc 2eb4 4abf
000002f0: 8623 2f3a be8a 7cbf 965c b92a 2a6c 67bf
00000300: 52e1 9708 8767 57bf 5c2f 65be 829a 60bf
00000310: 2bf1 7db6 b522 62bf d8de 90d6 b402 61bf
00000320: 66ce af5d dcd5 803f c203 e9c0 15da a13f
00000330: 7c4f fa63 a6a8 1e3f e43a 0978 110d 5ebf
00000340: 574a c11e 2e3b 8bbf cc71 6d08 b845 7abf
00000350: c3de 78e8 c3a3 75bf 89a1 bc2b 2458 75bf
00000360: 1744 a4d5 1bdb 76bf 918a 6bce ace0 76bf
00000370: ed14 77d4 eee2 803f eb72 9dbf d3bd a33f
00000380: 63ed 4ecd 2723 333f dba9 b83f 7937 65bf
00000390: 4c81 6861 9520 82bf 1a0a d98e 86ba 7fbf
000003a0: 0022 6c24 375f 7bbf b950 6f7e 1faa 7bbf
000003b0: 5e4a 46d6 b367 7dbf 5191 06b8 35de 7dbf
000003c0: 96c7 ece5 5990 62bf 507c aa75 faea a03f
000003d0: 06a9 57d4 006c 5abf 67c6 f862 cbd2 6dbf
000003e0: 068f b4dc 6133 773f 2898 c21c 4443 7ebf
000003f0: 9d4b 4b78 cf95 6ebf 1d4b bce1 4632 7bbf
00000400: f556 8d3f 65ae 7abf 48e0 4db6 ca4f 7cbf
00000410: f05f 9db6 0140 84bf 0273 e4f4 ac7d a13f
00000420: f457 dd8b c700 5bbf 309f 045d d6a6 76bf
00000430: 68d1 3c49 2ee5 853f 7ff6 3125 c816 7cbf
00000440: a9cd 8cf7 8bd9 6bbf 9f58 72ed 0f98 78bf
00000450: 9a57 cda7 c9ec 75bf 5178 2ed6 5048 79bf
00000460: 15d6 d9d4 8121 83bf 5d13 e8fd b445 a03f
00000470: f62b 716f de4f 4fbf fd1e a38c 7380 7abf
00000480: 78cd 55ee a460 863f f9e6 7144 4e41 7abf
00000490: 3b0a 3ad3 a095 6bbf 6968 16c2 238d 77bf
000004a0: 24ff f287 d4b7 72bf 79f1 8ecf 67f0 77bf
000004b0: 9350 45f5 06d6 7abf bb60 ee6f 6d7c 9f3f
000004c0: 6c59 4929 a0ae 54bf f2b0 3aa9 58b5 72bf
000004d0: d20a 9807 405f 833f f551 4fdc a064 7bbf
000004e0: 95cc 75ea a7b7 69bf 33f1 46e6 3cc0 79bf
000004f0: 4bb8 79ce b6d7 75bf db5e cc9f c520 7abf
00000500: 8eed 1def 356c 7a3f fb64 6c67 b01f 9f3f
00000510: a036 d2df 3643 24bf 3848 bef2 df01 5dbf
00000520: 6ed9 4a68 6021 58bf 7067 df5e 0761 7ebf
00000530: cfe0 d00a aa04 76bf e44c 575e bbc8 7bbf
00000540: fc4f 7534 fbda 7bbf 2ec2 91c2 a5f6 7cbf
00000550: 6cac cd7d b5ab 873f 4549 5a7f 8a75 a13f
00000560: bca3 53d5 92a4 543f 0683 7988 b876 58bf
00000570: 1e77 dfa5 676e 8cbf fac8 a881 4645 7abf
00000580: 1dd7 320f 8077 79bf ffd4 d54a 5326 79bf
00000590: cb45 5d9d f297 7abf 0d82 d6c4 59b7 79bf
000005a0: bb1b 6f1a 1791 793f 29aa 57b9 63c8 a03f
000005b0: 679f 5ab4 2c40 60bf 76c3 bbd9 3b16 71bf
000005c0: 6e22 132b ac05 89bf 968a 680d b4ac 72bf
000005d0: 80ae 5a16 8556 6cbf 9024 2e9a 85bf 70bf
000005e0: 2ee2 33ac 1517 72bf 6a2c 257c f8e3 70bf
000005f0: 01b5 c812 1696 753f 5865 bc28 4b98 863f
00000600: c8b8 bbe2 436c 58bf 405e 86b4 0e18 65bf
00000610: b8f8 922e 177d 75bf 280d 101c 53ef 58bf
00000620: 15cf d973 9bd6 4cbf ce9a 05ca 7b20 59bf
00000630: 78d7 6ffb 4214 5bbf 9b3f 7fef 93fa 56bf
00000640: 4720 ab35 ef61 6d3f 957b a217 7b1e 683f
00000650: a688 4c83 93a5 4bbf 03ed fec7 6b14 54bf
00000660: fadf ea17 d68a 62bf a649 989d 1130 3cbf
00000670: 7a90 6f7d a3d2 31bf ae0d 71d8 6e82 41bf
00000680: 419d b723 c284 41bf b9e9 2771 b4fe 3bbf
00000690: 4ebd 9a1e db25 4f3f 1276 71ed 5265 583f
000006a0: 4ed6 9a7b 3d58 3dbf 4b2e b9e5 a703 39bf
000006b0: bde7 0533 a0c2 51bf 7caa c496 dc5d ee3e
000006c0: e080 855d b5bc 11bf 8fba 79f7 1227 2bbf
000006d0: aa87 b269 be09 2abf 524d 3989 d297 11bf
000006e0: e83b 4492 db31 fd3e d932 ef61 c19a 3b3f
000006f0: 5c76 7ea7 63ea 25bf aec8 7596 38be 24bf
00000700: 32a1 dcdb 5e43 39bf c54f 150d 300d 333f
00000710: 129e b25c 15af ef3e ec7d 70bd 895a 11bf
00000720: f0e0 e16b 2151 0fbf 1a04 8312 af7f 153f
00000730: f28b b2bd 11fd 0ebf 8241 bc6c 2277 1f3f
00000740: c278 00d4 c603 1dbf 379c e091 99e5 1abf
00000750: 15a3 0462 af74 1abf 9fcc 696e 42d0 113f
00000760: 565a b369 18b7 023f 45b8 c707 7477 003f
00000770: 2fbf d63e fce7 f9be 328b 4851 f6bb 223f
00000780: 3850 7bc6 5fbb 203f 1fb4 e091 4940 17bf
00000790: dc0b 1581 d326 10bf a405 5c94 3c3f f23e
000007a0: f84b 95c3 cf96 17bf 8a8d f2bf 5de6 e43e
000007b0: 9562 b65f b0f4 f0be f628 2f72 c396 0a3f
000007c0: 910d 2350 049f cfbe fe69 acdb a992 0c3f
000007d0: 4f47 6adc f1b2 1d3f 4579 f34f 516d fdbe
000007e0: 1633 0c2c 6c88 f5be 5201 213c 7be3 ebbe
000007f0: 709c a077 a2ef 00bf b3f1 6f72 7f1e f0be
